…
signal = signal[0:dim * sample_num] [0:400*609]
# 按sample_num切分
signals = np.array(np.split(signal, sample_num)) (609, 400, 1)

signals_tr.append(signals[0:train_num, :]) 110*0.8
signals_tt.append(signals[train_num:sample_num, :])
labels_tr.append(idx * np.ones(train_num))
labels_tt.append(idx * np.ones(test_num))


(1218, 400) (1218,) (306, 400) (306,)
(1218, 400) (1218,) (306, 400) (306,)


----------------------------------------------------------------
        Layer (type)               Output Shape         Param #
================================================================
            Conv1d-1             [-1, 27, 2048]           1,512
       BatchNorm1d-2             [-1, 27, 2048]              54
              ReLU-3             [-1, 27, 2048]               0
         MaxPool1d-4              [-1, 27, 128]               0
            Conv1d-5              [-1, 27, 128]          40,122
       BatchNorm1d-6              [-1, 27, 128]              54
              ReLU-7              [-1, 27, 128]               0
           Dropout-8              [-1, 27, 128]               0
            Conv1d-9              [-1, 27, 128]          40,122
      BatchNorm1d-10              [-1, 27, 128]              54
             ReLU-11              [-1, 27, 128]               0
        MaxPool1d-12                [-1, 27, 8]               0
           Conv1d-13                [-1, 27, 8]          40,122
      BatchNorm1d-14                [-1, 27, 8]              54
             ReLU-15                [-1, 27, 8]               0
          Dropout-16                [-1, 27, 8]               0
           Conv1d-17                [-1, 27, 8]          40,122
      BatchNorm1d-18                [-1, 27, 8]              54
             ReLU-19                [-1, 27, 8]               0
          Flatten-20                  [-1, 216]               0
           Linear-21                  [-1, 101]          21,917
================================================================
Total params: 184,187
Trainable params: 184,187
Non-trainable params: 0
----------------------------------------------------------------
Input size (MB): 0.01
Forward/backward pass size (MB): 1.49
Params size (MB): 0.70
Estimated Total Size (MB): 2.20
----------------------------------------------------------------



[ … ), 0)




F:\Anaconda3\envs\Pytorch\python.exe F:/working_space/1D-CNN_Fault_Detection/main.py
…
